Preprocessing pipeline:
Model: "preprocessing_pipeline"
_________________________________________________________________
 Layer (type)                Output Shape              Param #   
=================================================================
 preprocessing_input (InputL  [(None, 196, 196, 3)]    0         
 ayer)                                                           
                                                                 
 grayscale (Grayscale)       (None, 196, 196, 1)       0         
                                                                 
 adaptive_thresholding (Adap  (None, 196, 196, 1)      0         
 tiveThresholding)                                               
                                                                 
 rescaling (Rescaling)       (None, 196, 196, 1)       0         
                                                                 
=================================================================
Total params: 0
Trainable params: 0
Non-trainable params: 0
_________________________________________________________________


Trainable summary:
Model: "trainable_layers"
_________________________________________________________________
 Layer (type)                Output Shape              Param #   
=================================================================
 trainable_input (InputLayer  [(None, 196, 196, 1)]    0         
 )                                                               
                                                                 
 conv2d (Conv2D)             (None, 192, 192, 128)     3328      
                                                                 
 max_pooling2d (MaxPooling2D  (None, 48, 48, 128)      0         
 )                                                               
                                                                 
 conv2d_1 (Conv2D)           (None, 44, 44, 256)       819456    
                                                                 
 max_pooling2d_1 (MaxPooling  (None, 11, 11, 256)      0         
 2D)                                                             
                                                                 
 flatten (Flatten)           (None, 30976)             0         
                                                                 
 dense (Dense)               (None, 120)               3717120   
                                                                 
 batch_normalization (BatchN  (None, 120)              480       
 ormalization)                                                   
                                                                 
 re_lu (ReLU)                (None, 120)               0         
                                                                 
 dense_1 (Dense)             (None, 84)                10164     
                                                                 
 softmax_output (Dense)      (None, 49)                4165      
                                                                 
=================================================================
Total params: 4,554,713
Trainable params: 4,554,473
Non-trainable params: 240
_________________________________________________________________



Training parameters: {'verbose': 1, 'epochs': 30, 'steps': 510}
Final training accuracy: 0.8401207327842712
Final validation accuracy: 0.936898946762085
…
